…
[2024-01-04 19:43:41 vssmsmall] (main.py 346): INFO {"cfg": "configs/swin/swin_small_patch4_window7_224.yaml", "opts": ["MODEL.TYPE", "vssm", "MODEL.NAME", "vssmsmall"], "batch_size": 64, "data_path": "/dataset/ImageNet2012", "zip": false, "cache_mode": "part", "pretrained": null, "resume": null, "accumulation_steps": null, "use_checkpoint": false, "disable_amp": false, "amp_opt_level": null, "output": "./output", "tag": null, "eval": false, "throughput": false, "local_rank": 3, "fused_window_process": false, "fused_layernorm": false, "optim": null}
[2024-01-04 19:43:44 vssmsmall] (main.py 87): INFO Creating model:vssm/vssmsmall
[2024-01-04 19:43:44 vssmsmall] (main.py 89): INFO VSSM(
  (patch_embed): PatchEmbed2D(
    (proj): Conv2d(3, 96, kernel_size=(4, 4), stride=(4, 4))
    (norm): LayerNorm((96,), eps=1e-05, elementwise_affine=True)
  )
  (pos_drop): Dropout(p=0.0, inplace=False)
  (layers): ModuleList(
    (0): VSSLayer(
      (blocks): ModuleList(
        (0): VSSBlock(
          (ln_1): LayerNorm((96,), eps=1e-05, elementwise_affine=True)
          (self_attention): SS2D(
            (in_proj): Linear(in_features=96, out_features=384, bias=False)
            (conv2d): Conv2d(192, 192, kernel_size=(3, 3), stride=(1, 1), padding=(1, 1), groups=192)
            (act): SiLU()
            (out_norm): LayerNorm((192,), eps=1e-05, elementwise_affine=True)
            (out_proj): Linear(in_features=192, out_features=96, bias=False)
          )
          (drop_path): timm.DropPath(0.0)
        )
        (1): VSSBlock(
          (ln_1): LayerNorm((96,), eps=1e-05, elementwise_affine=True)
          (self_attention): SS2D(
            (in_proj): Linear(in_features=96, out_features=384, bias=False)
            (conv2d): Conv2d(192, 192, kernel_size=(3, 3), stride=(1, 1), padding=(1, 1), groups=192)
            (act): SiLU()
            (out_norm): LayerNorm((192,), eps=1e-05, elementwise_affine=True)
            (out_proj): Linear(in_features=192, out_features=96, bias=False)
          )
          (drop_path): timm.DropPath(0.013043479062616825)
        )
      )
      (downsample): PatchMerging2D(
        (reduction): Linear(in_features=384, out_features=192, bias=False)
        (norm): LayerNorm((384,), eps=1e-05, elementwise_affine=True)
      )
    )
    (1): VSSLayer(
      (blocks): ModuleList(
        (0): VSSBlock(
          (ln_1): LayerNorm((192,), eps=1e-05, elementwise_affine=True)
          (self_attention): SS2D(
            (in_proj): Linear(in_features=192, out_features=768, bias=False)
            (conv2d): Conv2d(384, 384, kernel_size=(3, 3), stride=(1, 1), padding=(1, 1), groups=384)
            (act): SiLU()
            (out_norm): LayerNorm((384,), eps=1e-05, elementwise_affine=True)
            (out_proj): Linear(in_features=384, out_features=192, bias=False)
          )
          (drop_path): timm.DropPath(0.02608695812523365)
        )
        (1): VSSBlock(
          (ln_1): LayerNorm((192,), eps=1e-05, elementwise_affine=True)
          (self_attention): SS2D(
            (in_proj): Linear(in_features=192, out_features=768, bias=False)
            (conv2d): Conv2d(384, 384, kernel_size=(3, 3), stride=(1, 1), padding=(1, 1), groups=384)
            (act): SiLU()
            (out_norm): LayerNorm((384,), eps=1e-05, elementwise_affine=True)
            (out_proj): Linear(in_features=384, out_features=192, bias=False)
          )
          (drop_path): timm.DropPath(0.03913043811917305)
        )
      )
      (downsample): PatchMerging2D(
        (reduction): Linear(in_features=768, out_features=384, bias=False)
        (norm): LayerNorm((768,), eps=1e-05, elementwise_affine=True)
      )
    )
    (2): VSSLayer(
      (blocks): ModuleList(
        (0): VSSBlock(
          (ln_1): LayerNorm((384,), eps=1e-05, elementwise_affine=True)
          (self_attention): SS2D(
            (in_proj): Linear(in_features=384, out_features=1536, bias=False)
            (conv2d): Conv2d(768, 768, kernel_size=(3, 3), stride=(1, 1), padding=(1, 1), groups=768)
            (act): SiLU()
            (out_norm): LayerNorm((768,), eps=1e-05, elementwise_affine=True)
            (out_proj): Linear(in_features=768, out_features=384, bias=False)
          )
          (drop_path): timm.DropPath(0.0521739162504673)
        )
        (1): VSSBlock(
          (ln_1): LayerNorm((384,), eps=1e-05, elementwise_affine=True)
          (self_attention): SS2D(
            (in_proj): Linear(in_features=384, out_features=1536, bias=False)
            (conv2d): Conv2d(768, 768, kernel_size=(3, 3), stride=(1, 1), padding=(1, 1), groups=768)
            (act): SiLU()
            (out_norm): LayerNorm((768,), eps=1e-05, elementwise_affine=True)
            (out_proj): Linear(in_features=768, out_features=384, bias=False)
          )
          (drop_path): timm.DropPath(0.06521739810705185)
        )
        (2): VSSBlock(
          (ln_1): LayerNorm((384,), eps=1e-05, elementwise_affine=True)
          (self_attention): SS2D(
            (in_proj): Linear(in_features=384, out_features=1536, bias=False)
            (conv2d): Conv2d(768, 768, kernel_size=(3, 3), stride=(1, 1), padding=(1, 1), groups=768)
            (act): SiLU()
            (out_norm): LayerNorm((768,), eps=1e-05, elementwise_affine=True)
            (out_proj): Linear(in_features=768, out_features=384, bias=False)
          )
          (drop_path): timm.DropPath(0.0782608762383461)
        )
        (3): VSSBlock(
          (ln_1): LayerNorm((384,), eps=1e-05, elementwise_affine=True)
          (self_attention): SS2D(
            (in_proj): Linear(in_features=384, out_features=1536, bias=False)
            (conv2d): Conv2d(768, 768, kernel_size=(3, 3), stride=(1, 1), padding=(1, 1), groups=768)
            (act): SiLU()
            (out_norm): LayerNorm((768,), eps=1e-05, elementwise_affine=True)
            (out_proj): Linear(in_features=768, out_features=384, bias=False)
          )
          (drop_path): timm.DropPath(0.09130435436964035)
        )
        (4): VSSBlock(
          (ln_1): LayerNorm((384,), eps=1e-05, elementwise_affine=True)
          (self_attention): SS2D(
            (in_proj): Linear(in_features=384, out_features=1536, bias=False)
            (conv2d): Conv2d(768, 768, kernel_size=(3, 3), stride=(1, 1), padding=(1, 1), groups=768)
            (act): SiLU()
            (out_norm): LayerNorm((768,), eps=1e-05, elementwise_affine=True)
            (out_proj): Linear(in_features=768, out_features=384, bias=False)
          )
          (drop_path): timm.DropPath(0.1043478325009346)
        )
        (5): VSSBlock(
          (ln_1): LayerNorm((384,), eps=1e-05, elementwise_affine=True)
          (self_attention): SS2D(
            (in_proj): Linear(in_features=384, out_features=1536, bias=False)
            (conv2d): Conv2d(768, 768, kernel_size=(3, 3), stride=(1, 1), padding=(1, 1), groups=768)
            (act): SiLU()
            (out_norm): LayerNorm((768,), eps=1e-05, elementwise_affine=True)
            (out_proj): Linear(in_features=768, out_features=384, bias=False)
          )
          (drop_path): timm.DropPath(0.11739131063222885)
        )
        (6): VSSBlock(
          (ln_1): LayerNorm((384,), eps=1e-05, elementwise_affine=True)
          (self_attention): SS2D(
            (in_proj): Linear(in_features=384, out_features=1536, bias=False)
            (conv2d): Conv2d(768, 768, kernel_size=(3, 3), stride=(1, 1), padding=(1, 1), groups=768)
            (act): SiLU()
            (out_norm): LayerNorm((768,), eps=1e-05, elementwise_affine=True)
            (out_proj): Linear(in_features=768, out_features=384, bias=False)
          )
          (drop_path): timm.DropPath(0.1304347962141037)
        )
        (7): VSSBlock(
          (ln_1): LayerNorm((384,), eps=1e-05, elementwise_affine=True)
          (self_attention): SS2D(
            (in_proj): Linear(in_features=384, out_features=1536, bias=False)
            (conv2d): Conv2d(768, 768, kernel_size=(3, 3), stride=(1, 1), padding=(1, 1), groups=768)
            (act): SiLU()
            (out_norm): LayerNorm((768,), eps=1e-05, elementwise_affine=True)
            (out_proj): Linear(in_features=768, out_features=384, bias=False)
          )
          (drop_path): timm.DropPath(0.14347827434539795)
        )
        (8): VSSBlock(
          (ln_1): LayerNorm((384,), eps=1e-05, elementwise_affine=True)
          (self_attention): SS2D(
            (in_proj): Linear(in_features=384, out_features=1536, bias=False)
            (conv2d): Conv2d(768, 768, kernel_size=(3, 3), stride=(1, 1), padding=(1, 1), groups=768)
            (act): SiLU()
            (out_norm): LayerNorm((768,), eps=1e-05, elementwise_affine=True)
            (out_proj): Linear(in_features=768, out_features=384, bias=False)
          )
          (drop_path): timm.DropPath(0.1565217524766922)
        )
        (9): VSSBlock(
          (ln_1): LayerNorm((384,), eps=1e-05, elementwise_affine=True)
          (self_attention): SS2D(
            (in_proj): Linear(in_features=384, out_features=1536, bias=False)
            (conv2d): Conv2d(768, 768, kernel_size=(3, 3), stride=(1, 1), padding=(1, 1), groups=768)
            (act): SiLU()
            (out_norm): LayerNorm((768,), eps=1e-05, elementwise_affine=True)
            (out_proj): Linear(in_features=768, out_features=384, bias=False)
          )
          (drop_path): timm.DropPath(0.16956523060798645)
        )
        (10): VSSBlock(
          (ln_1): LayerNorm((384,), eps=1e-05, elementwise_affine=True)
          (self_attention): SS2D(
            (in_proj): Linear(in_features=384, out_features=1536, bias=False)
            (conv2d): Conv2d(768, 768, kernel_size=(3, 3), stride=(1, 1), padding=(1, 1), groups=768)
            (act): SiLU()
            (out_norm): LayerNorm((768,), eps=1e-05, elementwise_affine=True)
            (out_proj): Linear(in_features=768, out_features=384, bias=False)
          )
          (drop_path): timm.DropPath(0.1826087087392807)
        )
        (11): VSSBlock(
          (ln_1): LayerNorm((384,), eps=1e-05, elementwise_affine=True)
          (self_attention): SS2D(
            (in_proj): Linear(in_features=384, out_features=1536, bias=False)
            (conv2d): Conv2d(768, 768, kernel_size=(3, 3), stride=(1, 1), padding=(1, 1), groups=768)
            (act): SiLU()
            (out_norm): LayerNorm((768,), eps=1e-05, elementwise_affine=True)
            (out_proj): Linear(in_features=768, out_features=384, bias=False)
          )
          (drop_path): timm.DropPath(0.19565218687057495)
        )
        (12): VSSBlock(
          (ln_1): LayerNorm((384,), eps=1e-05, elementwise_affine=True)
          (self_attention): SS2D(
            (in_proj): Linear(in_features=384, out_features=1536, bias=False)
            (conv2d): Conv2d(768, 768, kernel_size=(3, 3), stride=(1, 1), padding=(1, 1), groups=768)
            (act): SiLU()
            (out_norm): LayerNorm((768,), eps=1e-05, elementwise_affine=True)
            (out_proj): Linear(in_features=768, out_features=384, bias=False)
          )
          (drop_path): timm.DropPath(0.2086956650018692)
        )
        (13): VSSBlock(
          (ln_1): LayerNorm((384,), eps=1e-05, elementwise_affine=True)
          (self_attention): SS2D(
            (in_proj): Linear(in_features=384, out_features=1536, bias=False)
            (conv2d): Conv2d(768, 768, kernel_size=(3, 3), stride=(1, 1), padding=(1, 1), groups=768)
            (act): SiLU()
            (out_norm): LayerNorm((768,), eps=1e-05, elementwise_affine=True)
            (out_proj): Linear(in_features=768, out_features=384, bias=False)
          )
          (drop_path): timm.DropPath(0.22173914313316345)
        )
        (14): VSSBlock(
          (ln_1): LayerNorm((384,), eps=1e-05, elementwise_affine=True)
          (self_attention): SS2D(
            (in_proj): Linear(in_features=384, out_features=1536, bias=False)
            (conv2d): Conv2d(768, 768, kernel_size=(3, 3), stride=(1, 1), padding=(1, 1), groups=768)
            (act): SiLU()
            (out_norm): LayerNorm((768,), eps=1e-05, elementwise_affine=True)
            (out_proj): Linear(in_features=768, out_features=384, bias=False)
          )
          (drop_path): timm.DropPath(0.2347826212644577)
        )
        (15): VSSBlock(
          (ln_1): LayerNorm((384,), eps=1e-05, elementwise_affine=True)
          (self_attention): SS2D(
            (in_proj): Linear(in_features=384, out_features=1536, bias=False)
            (conv2d): Conv2d(768, 768, kernel_size=(3, 3), stride=(1, 1), padding=(1, 1), groups=768)
            (act): SiLU()
            (out_norm): LayerNorm((768,), eps=1e-05, elementwise_affine=True)
            (out_proj): Linear(in_features=768, out_features=384, bias=False)
          )
          (drop_path): timm.DropPath(0.24782609939575195)
        )
        (16): VSSBlock(
          (ln_1): LayerNorm((384,), eps=1e-05, elementwise_affine=True)
          (self_attention): SS2D(
            (in_proj): Linear(in_features=384, out_features=1536, bias=False)
            (conv2d): Conv2d(768, 768, kernel_size=(3, 3), stride=(1, 1), padding=(1, 1), groups=768)
            (act): SiLU()
            (out_norm): LayerNorm((768,), eps=1e-05, elementwise_affine=True)
            (out_proj): Linear(in_features=768, out_features=384, bias=False)
          )
          (drop_path): timm.DropPath(0.260869562625885)
        )
        (17): VSSBlock(
          (ln_1): LayerNorm((384,), eps=1e-05, elementwise_affine=True)
          (self_attention): SS2D(
            (in_proj): Linear(in_features=384, out_features=1536, bias=False)
            (conv2d): Conv2d(768, 768, kernel_size=(3, 3), stride=(1, 1), padding=(1, 1), groups=768)
            (act): SiLU()
            (out_norm): LayerNorm((768,), eps=1e-05, elementwise_affine=True)
            (out_proj): Linear(in_features=768, out_features=384, bias=False)
          )
          (drop_path): timm.DropPath(0.27391305565834045)
        )
      )
      (downsample): PatchMerging2D(
        (reduction): Linear(in_features=1536, out_features=768, bias=False)
        (norm): LayerNorm((1536,), eps=1e-05, elementwise_affine=True)
      )
    )
    (3): VSSLayer(
      (blocks): ModuleList(
        (0): VSSBlock(
          (ln_1): LayerNorm((768,), eps=1e-05, elementwise_affine=True)
          (self_attention): SS2D(
            (in_proj): Linear(in_features=768, out_features=3072, bias=False)
            (conv2d): Conv2d(1536, 1536, kernel_size=(3, 3), stride=(1, 1), padding=(1, 1), groups=1536)
            (act): SiLU()
            (out_norm): LayerNorm((1536,), eps=1e-05, elementwise_affine=True)
            (out_proj): Linear(in_features=1536, out_features=768, bias=False)
          )
          (drop_path): timm.DropPath(0.2869565188884735)
        )
        (1): VSSBlock(
          (ln_1): LayerNorm((768,), eps=1e-05, elementwise_affine=True)
          (self_attention): SS2D(
            (in_proj): Linear(in_features=768, out_features=3072, bias=False)
            (conv2d): Conv2d(1536, 1536, kernel_size=(3, 3), stride=(1, 1), padding=(1, 1), groups=1536)
            (act): SiLU()
            (out_norm): LayerNorm((1536,), eps=1e-05, elementwise_affine=True)
            (out_proj): Linear(in_features=1536, out_features=768, bias=False)
          )
          (drop_path): timm.DropPath(0.30000001192092896)
        )
      )
    )
  )
  (norm): LayerNorm((768,), eps=1e-05, elementwise_affine=True)
  (avgpool): AdaptiveAvgPool1d(output_size=1)
  (head): Linear(in_features=768, out_features=1000, bias=True)
)
[2024-01-04 19:43:44 vssmsmall] (main.py 92): INFO number of params: 33655432
[2024-01-04 19:43:44 vssmsmall] (main.py 129): INFO no checkpoint found in ./output/vssmsmall/default, ignoring auto resume
[2024-01-04 19:43:44 vssmsmall] (main.py 147): INFO Start training
[2024-01-04 19:44:35 vssmsmall] (main.py 216): INFO Train: [0/300][0/2859]	eta 1 day, 16:04:17 lr 0.000000	 wd 0.0500	time 50.4573 (50.4573)	loss 6.9279 (6.9279)	grad_norm 1.5916 (1.5916)	loss_scale 65536.0000 (65536.0000)	mem 20083MB
…
